…
     "output_type": "stream",
     "text": [
      "(42320, 24, 6)\n",
      "(42320,)\n",
      "layers=[8, 8, 8, 1], train_examples=42320, test_examples=5384\n",
      "batch = 32, timesteps = 24, features = 6, epochs = 3\n",
      "lr = 0.001, lambda = 0.001, dropout = 1, recurr_dropout = 1\n",
      "Model: \"sequential_1\"\n",
      "_________________________________________________________________\n",
      "Layer (type)                 Output Shape              Param #   \n",
      "=================================================================\n",
      "lstm_1 (LSTM)                (None, 24, 8)             480       \n",
      "_________________________________________________________________\n",
      "dropout_1 (Dropout)          (None, 24, 8)             0         \n",
      "_________________________________________________________________\n",
      "batch_normalization_1 (Batch (None, 24, 8)             32        \n",
      "_________________________________________________________________\n",
      "lstm_2 (LSTM)                (None, 24, 8)             544       \n",
      "_________________________________________________________________\n",
      "dropout_2 (Dropout)          (None, 24, 8)             0         \n",
      "_________________________________________________________________\n",
      "batch_normalization_2 (Batch (None, 24, 8)             32        \n",
      "_________________________________________________________________\n",
      "LAYERS (LSTM)                (None, 8)                 544       \n",
      "_________________________________________________________________\n",
      "dropout_3 (Dropout)          (None, 8)                 0         \n",
      "_________________________________________________________________\n",
      "batch_normalization_3 (Batch (None, 8)                 32        \n",
      "_________________________________________________________________\n",
      "dense_1 (Dense)              (None, 1)                 9         \n",
      "=================================================================\n",
      "Total params: 1,673\n",
      "Trainable params: 1,625\n",
      "Non-trainable params: 48\n",
      "_________________________________________________________________\n",
      "None\n",
      "Train on 33856 samples, validate on 8464 samples\n",
      "Epoch 1/3\n",
      " - 38s - loss: 0.5976 - accuracy: 0.7336 - f1_m: 0.5662 - precision_m: 0.7461 - val_loss: 0.9339 - val_accuracy: 0.5155 - val_f1_m: 0.6752 - val_precision_m: 1.0000\n",
…
